{"format": "torch", "nodes": [{"name": "electra", "id": 139919044905616, "class_name": "ElectraModel(\n  (embeddings): ElectraEmbeddings(\n    (word_embeddings): Embedding(35000, 128, padding_idx=0)\n    (position_embeddings): Embedding(512, 128)\n    (token_type_embeddings): Embedding(2, 128)\n    (LayerNorm): LayerNorm((128,), eps=1e-12, elementwise_affine=True)\n    (dropout): Dropout(p=0.1, inplace=False)\n  )\n  (embeddings_project): Linear(in_features=128, out_features=256, bias=True)\n  (encoder): ElectraEncoder(\n    (layer): ModuleList(\n      (0): ElectraLayer(\n        (attention): ElectraAttention(\n          (self): ElectraSelfAttention(\n            (query): Linear(in_features=256, out_features=256, bias=True)\n            (key): Linear(in_features=256, out_features=256, bias=True)\n            (value): Linear(in_features=256, out_features=256, bias=True)\n            (dropout): Dropout(p=0.1, inplace=False)\n          )\n          (output): ElectraSelfOutput(\n            (dense): Linear(in_features=256, out_features=256, bias=True)\n            (LayerNorm): LayerNorm((256,), eps=1e-12, elementwise_affine=True)\n            (dropout): Dropout(p=0.1, inplace=False)\n          )\n        )\n        (intermediate): ElectraIntermediate(\n          (dense): Linear(in_features=256, out_features=1024, bias=True)\n        )\n        (output): ElectraOutput(\n          (dense): Linear(in_features=1024, out_features=256, bias=True)\n          (LayerNorm): LayerNorm((256,), eps=1e-12, elementwise_affine=True)\n          (dropout): Dropout(p=0.1, inplace=False)\n        )\n      )\n      (1): ElectraLayer(\n        (attention): ElectraAttention(\n          (self): ElectraSelfAttention(\n            (query): Linear(in_features=256, out_features=256, bias=True)\n            (key): Linear(in_features=256, out_features=256, bias=True)\n            (value): Linear(in_features=256, out_features=256, bias=True)\n            (dropout): Dropout(p=0.1, inplace=False)\n          )\n          (output): ElectraSelfOutput(\n            (dense): Linear(in_features=256, out_features=256, bias=True)\n            (LayerNorm): LayerNorm((256,), eps=1e-12, elementwise_affine=True)\n            (dropout): Dropout(p=0.1, inplace=False)\n          )\n        )\n        (intermediate): ElectraIntermediate(\n          (dense): Linear(in_features=256, out_features=1024, bias=True)\n        )\n        (output): ElectraOutput(\n          (dense): Linear(in_features=1024, out_features=256, bias=True)\n          (LayerNorm): LayerNorm((256,), eps=1e-12, elementwise_affine=True)\n          (dropout): Dropout(p=0.1, inplace=False)\n        )\n      )\n      (2): ElectraLayer(\n        (attention): ElectraAttention(\n          (self): ElectraSelfAttention(\n            (query): Linear(in_features=256, out_features=256, bias=True)\n            (key): Linear(in_features=256, out_features=256, bias=True)\n            (value): Linear(in_features=256, out_features=256, bias=True)\n            (dropout): Dropout(p=0.1, inplace=False)\n          )\n          (output): ElectraSelfOutput(\n            (dense): Linear(in_features=256, out_features=256, bias=True)\n            (LayerNorm): LayerNorm((256,), eps=1e-12, elementwise_affine=True)\n            (dropout): Dropout(p=0.1, inplace=False)\n          )\n        )\n        (intermediate): ElectraIntermediate(\n          (dense): Linear(in_features=256, out_features=1024, bias=True)\n        )\n        (output): ElectraOutput(\n          (dense): Linear(in_features=1024, out_features=256, bias=True)\n          (LayerNorm): LayerNorm((256,), eps=1e-12, elementwise_affine=True)\n          (dropout): Dropout(p=0.1, inplace=False)\n        )\n      )\n      (3): ElectraLayer(\n        (attention): ElectraAttention(\n          (self): ElectraSelfAttention(\n            (query): Linear(in_features=256, out_features=256, bias=True)\n            (key): Linear(in_features=256, out_features=256, bias=True)\n            (value): Linear(in_features=256, out_features=256, bias=True)\n            (dropout): Dropout(p=0.1, inplace=False)\n          )\n          (output): ElectraSelfOutput(\n            (dense): Linear(in_features=256, out_features=256, bias=True)\n            (LayerNorm): LayerNorm((256,), eps=1e-12, elementwise_affine=True)\n            (dropout): Dropout(p=0.1, inplace=False)\n          )\n        )\n        (intermediate): ElectraIntermediate(\n          (dense): Linear(in_features=256, out_features=1024, bias=True)\n        )\n        (output): ElectraOutput(\n          (dense): Linear(in_features=1024, out_features=256, bias=True)\n          (LayerNorm): LayerNorm((256,), eps=1e-12, elementwise_affine=True)\n          (dropout): Dropout(p=0.1, inplace=False)\n        )\n      )\n      (4): ElectraLayer(\n        (attention): ElectraAttention(\n          (self): ElectraSelfAttention(\n            (query): Linear(in_features=256, out_features=256, bias=True)\n            (key): Linear(in_features=256, out_features=256, bias=True)\n            (value): Linear(in_features=256, out_features=256, bias=True)\n            (dropout): Dropout(p=0.1, inplace=False)\n          )\n          (output): ElectraSelfOutput(\n            (dense): Linear(in_features=256, out_features=256, bias=True)\n            (LayerNorm): LayerNorm((256,), eps=1e-12, elementwise_affine=True)\n            (dropout): Dropout(p=0.1, inplace=False)\n          )\n        )\n        (intermediate): ElectraIntermediate(\n          (dense): Linear(in_features=256, out_features=1024, bias=True)\n        )\n        (output): ElectraOutput(\n          (dense): Linear(in_features=1024, out_features=256, bias=True)\n          (LayerNorm): LayerNorm((256,), eps=1e-12, elementwise_affine=True)\n          (dropout): Dropout(p=0.1, inplace=False)\n        )\n      )\n      (5): ElectraLayer(\n        (attention): ElectraAttention(\n          (self): ElectraSelfAttention(\n            (query): Linear(in_features=256, out_features=256, bias=True)\n            (key): Linear(in_features=256, out_features=256, bias=True)\n            (value): Linear(in_features=256, out_features=256, bias=True)\n            (dropout): Dropout(p=0.1, inplace=False)\n          )\n          (output): ElectraSelfOutput(\n            (dense): Linear(in_features=256, out_features=256, bias=True)\n            (LayerNorm): LayerNorm((256,), eps=1e-12, elementwise_affine=True)\n            (dropout): Dropout(p=0.1, inplace=False)\n          )\n        )\n        (intermediate): ElectraIntermediate(\n          (dense): Linear(in_features=256, out_features=1024, bias=True)\n        )\n        (output): ElectraOutput(\n          (dense): Linear(in_features=1024, out_features=256, bias=True)\n          (LayerNorm): LayerNorm((256,), eps=1e-12, elementwise_affine=True)\n          (dropout): Dropout(p=0.1, inplace=False)\n        )\n      )\n      (6): ElectraLayer(\n        (attention): ElectraAttention(\n          (self): ElectraSelfAttention(\n            (query): Linear(in_features=256, out_features=256, bias=True)\n            (key): Linear(in_features=256, out_features=256, bias=True)\n            (value): Linear(in_features=256, out_features=256, bias=True)\n            (dropout): Dropout(p=0.1, inplace=False)\n          )\n          (output): ElectraSelfOutput(\n            (dense): Linear(in_features=256, out_features=256, bias=True)\n            (LayerNorm): LayerNorm((256,), eps=1e-12, elementwise_affine=True)\n            (dropout): Dropout(p=0.1, inplace=False)\n          )\n        )\n        (intermediate): ElectraIntermediate(\n          (dense): Linear(in_features=256, out_features=1024, bias=True)\n        )\n        (output): ElectraOutput(\n          (dense): Linear(in_features=1024, out_features=256, bias=True)\n          (LayerNorm): LayerNorm((256,), eps=1e-12, elementwise_affine=True)\n          (dropout): Dropout(p=0.1, inplace=False)\n        )\n      )\n      (7): ElectraLayer(\n        (attention): ElectraAttention(\n          (self): ElectraSelfAttention(\n            (query): Linear(in_features=256, out_features=256, bias=True)\n            (key): Linear(in_features=256, out_features=256, bias=True)\n            (value): Linear(in_features=256, out_features=256, bias=True)\n            (dropout): Dropout(p=0.1, inplace=False)\n          )\n          (output): ElectraSelfOutput(\n            (dense): Linear(in_features=256, out_features=256, bias=True)\n            (LayerNorm): LayerNorm((256,), eps=1e-12, elementwise_affine=True)\n            (dropout): Dropout(p=0.1, inplace=False)\n          )\n        )\n        (intermediate): ElectraIntermediate(\n          (dense): Linear(in_features=256, out_features=1024, bias=True)\n        )\n        (output): ElectraOutput(\n          (dense): Linear(in_features=1024, out_features=256, bias=True)\n          (LayerNorm): LayerNorm((256,), eps=1e-12, elementwise_affine=True)\n          (dropout): Dropout(p=0.1, inplace=False)\n        )\n      )\n      (8): ElectraLayer(\n        (attention): ElectraAttention(\n          (self): ElectraSelfAttention(\n            (query): Linear(in_features=256, out_features=256, bias=True)\n            (key): Linear(in_features=256, out_features=256, bias=True)\n            (value): Linear(in_features=256, out_features=256, bias=True)\n            (dropout): Dropout(p=0.1, inplace=False)\n          )\n          (output): ElectraSelfOutput(\n            (dense): Linear(in_features=256, out_features=256, bias=True)\n            (LayerNorm): LayerNorm((256,), eps=1e-12, elementwise_affine=True)\n            (dropout): Dropout(p=0.1, inplace=False)\n          )\n        )\n        (intermediate): ElectraIntermediate(\n          (dense): Linear(in_features=256, out_features=1024, bias=True)\n        )\n        (output): ElectraOutput(\n          (dense): Linear(in_features=1024, out_features=256, bias=True)\n          (LayerNorm): LayerNorm((256,), eps=1e-12, elementwise_affine=True)\n          (dropout): Dropout(p=0.1, inplace=False)\n        )\n      )\n      (9): ElectraLayer(\n        (attention): ElectraAttention(\n          (self): ElectraSelfAttention(\n            (query): Linear(in_features=256, out_features=256, bias=True)\n            (key): Linear(in_features=256, out_features=256, bias=True)\n            (value): Linear(in_features=256, out_features=256, bias=True)\n            (dropout): Dropout(p=0.1, inplace=False)\n          )\n          (output): ElectraSelfOutput(\n            (dense): Linear(in_features=256, out_features=256, bias=True)\n            (LayerNorm): LayerNorm((256,), eps=1e-12, elementwise_affine=True)\n            (dropout): Dropout(p=0.1, inplace=False)\n          )\n        )\n        (intermediate): ElectraIntermediate(\n          (dense): Linear(in_features=256, out_features=1024, bias=True)\n        )\n        (output): ElectraOutput(\n          (dense): Linear(in_features=1024, out_features=256, bias=True)\n          (LayerNorm): LayerNorm((256,), eps=1e-12, elementwise_affine=True)\n          (dropout): Dropout(p=0.1, inplace=False)\n        )\n      )\n      (10): ElectraLayer(\n        (attention): ElectraAttention(\n          (self): ElectraSelfAttention(\n            (query): Linear(in_features=256, out_features=256, bias=True)\n            (key): Linear(in_features=256, out_features=256, bias=True)\n            (value): Linear(in_features=256, out_features=256, bias=True)\n            (dropout): Dropout(p=0.1, inplace=False)\n          )\n          (output): ElectraSelfOutput(\n            (dense): Linear(in_features=256, out_features=256, bias=True)\n            (LayerNorm): LayerNorm((256,), eps=1e-12, elementwise_affine=True)\n            (dropout): Dropout(p=0.1, inplace=False)\n          )\n        )\n        (intermediate): ElectraIntermediate(\n          (dense): Linear(in_features=256, out_features=1024, bias=True)\n        )\n        (output): ElectraOutput(\n          (dense): Linear(in_features=1024, out_features=256, bias=True)\n          (LayerNorm): LayerNorm((256,), eps=1e-12, elementwise_affine=True)\n          (dropout): Dropout(p=0.1, inplace=False)\n        )\n      )\n      (11): ElectraLayer(\n        (attention): ElectraAttention(\n          (self): ElectraSelfAttention(\n            (query): Linear(in_features=256, out_features=256, bias=True)\n            (key): Linear(in_features=256, out_features=256, bias=True)\n            (value): Linear(in_features=256, out_features=256, bias=True)\n            (dropout): Dropout(p=0.1, inplace=False)\n          )\n          (output): ElectraSelfOutput(\n            (dense): Linear(in_features=256, out_features=256, bias=True)\n            (LayerNorm): LayerNorm((256,), eps=1e-12, elementwise_affine=True)\n            (dropout): Dropout(p=0.1, inplace=False)\n          )\n        )\n        (intermediate): ElectraIntermediate(\n          (dense): Linear(in_features=256, out_features=1024, bias=True)\n        )\n        (output): ElectraOutput(\n          (dense): Linear(in_features=1024, out_features=256, bias=True)\n          (LayerNorm): LayerNorm((256,), eps=1e-12, elementwise_affine=True)\n          (dropout): Dropout(p=0.1, inplace=False)\n        )\n      )\n    )\n  )\n)", "parameters": [["embeddings.word_embeddings.weight", [35000, 128]], ["embeddings.position_embeddings.weight", [512, 128]], ["embeddings.token_type_embeddings.weight", [2, 128]], ["embeddings.LayerNorm.weight", [128]], ["embeddings.LayerNorm.bias", [128]], ["embedding
…
